output/predictions/zeno_4_model_save.npy (npy, 14528 bytes, 1 tensors)

array f8 [1800, 1]
0	0x4046e75943cc39b0	45.80741164657536
1	0x3f728220c26e1a00	0.004518630949752467
2	0xbf4f565428c41000	-0.000956336110477185
3	0x3f6988e2a2384000	0.003117029804123206
4	0xbf7f37ae1090c800	-0.007621459903974781
5	0x400a56701aed5c00	3.2922060111700375
6	0x3fa5c09cf3b5c000	0.042485146283866015
7	0x402d6f15f2bf03a0	14.716964326684149
8	0x3f5525d0667e2000	0.0012907538566384602
9	0x3f72ae9953cc0d00	0.00456104176987826
10	0x3fb9105e1a906c00	0.09790599964655655
11	0x3fc8aca72525e100	0.19276894868722394
12	0x3fc6e371dd8faf80	0.17881606405660122
13	0xbf858be1beadcc00	-0.01052070964008145
14	0x3fefca2f41fd1400	0.993430737384756
15	0xbf3cc047886c0000	-0.00043870684059754694
16	0x3f8a40fb271f5c00	0.012819254046844364
17	0xbf37b984deabc000	-0.00036200994388391194
18	0x4050dc49fecee490	67.4420163174093
19	0x3f6fe0e09e288400	0.003891409594203754
20	0x3f6004c3a1cb7000	0.00195539674164813
21	0x3f923272c684cc00	0.017770570150968723
22	0x3ff58baebeb76b00	1.3466021966802941
23	0x3f8363a3c1e8b400	0.009467391352780297
24	0xbf82caf7c4f8c000	-0.009176192949865936
25	0x3f956397fd60bc00	0.020887732353170207
26	0x3fd7ac88235e0080	0.36990550474002504
27	0xbf6d8cf50d32a000	-0.003607252708736297
28	0x40012aa8a7da0c00	2.1458294976632715
29	0x3fcfc49d5a16ae00	0.24818770312172944
30	0x3f54ffacf403a000	0.0012816609378720756
31	0xbf74f38345260800	-0.005115044378159794
32	0x3fe9929541525a80	0.7991434360327077
33	0x3f879829049c3e00	0.011520691350169976
34	0xbf24ef9cadc10000	-0.00015972888547999275
35	0x3fef0cfc34a00b80	0.970335104735895
36	0x3f75416174b96800	0.005189305007286649
37	0x3ffe142f90217d00	1.8799281721219927
38	0x40101b15b52e5c80	4.026449995951339
39	0xbfb189acdfbf4000	-0.06850700819563826
40	0x3fd574a67bdaf5e0	0.335244770958381
41	0x3f3a8ad566c37000	0.00040500364299389524
42	0x3fe7e4b59ac08f00	0.7466686270240359
43	0x3ff83458fd66eb80	1.5127801798359712
44	0x40189f557fcb6080	6.1555995910531465
45	0x3ff6cfcb4dc66200	1.4257309949954333
46	0x3f4e4085a2c3d000	0.0009232189673000768
47	0xbf73b48ede07d800	-0.004810865474146553
48	0xbf91c61eb773d800	-0.017357330271771332
49	0x40319cc36a070440	17.612356783593214
50	0x3fd4a539f38bec00	0.32258461746067724
51	0x3f91a32ab5f14c00	0.0172239945935182
52	0xbf69dc1d9dc0c000	-0.003156717151817645
53	0x4022aec81add7860	9.341370429549158
54	0x3f632f1df1093200	0.002341803054412006
55	0xbf51a2e605e20000	-0.0010764356916581619
56	0x3fd6e6ffeb443f80	0.3578491017842609
57	0x3fffc51631425440	1.985616867464401
58	0x3f803ad42844c000	0.007924706915758861
59	0x401298c62ee2f860	4.649193508723414
60	0x3f748ff55e7ae000	0.0050201019982338835
61	0x403066d3879d3460	16.401665187721278
62	0xbf824f4c342c2a00	-0.00894031080453761
63	0x401e94d424654a00	7.645340508157915
64	0xbf85bb0b21b0d000	-0.010610663381250163
65	0x40342d30ca433e00	20.176525727669286
66	0x3f8c93ad3f1f4000	0.013953546036560738
67	0x403aca3a22137c00	26.789949540860107
68	0x3fbdf996035c1200	0.1170896299555082
69	0x3f6bc388002d0000	0.0033891350043688817
70	0x3f73dab18eb70000	0.004847234329133698
71	0x3fe16c071f439200	0.5444369898437458
72	0xbf83233a4c832000	-0.00934453531262136
73	0x403155083e0a4c00	17.332157018197904
74	0x40571c5dfe0afd20	92.44323683808443
75	0x4020ca1a48222ac0	8.394731764002586
76	0x400ef4350af26b00	3.8692417960386365
77	0x3fd97693106a0000	0.3978622112554149
78	0xbf84327e8286f000	-0.009861935003634414
79	0x3fda60e172dacd00	0.41216312614706396
80	0x403fe4e80a24c260	31.894165643667634
81	0x40256eef05e53920	10.716667350989667
82	0x3f47a0093e7e4000	0.000720982087829114
83	0x3fe188e75437b500	0.5479618687510595
84	0xbf7f2dea07581000	-0.0076121465440373015
85	0x3f5ea17402e52e00	0.0018695481226868038
86	0x3f46f206fd96c000	0.0007002386220644752
87	0x3ff8a73f210b5200	1.5408316889562457
88	0x3f80c0bdcffc7800	0.008180125150428097
89	0x3fd9aa8302aa3700	0.40103221187824545
90	0x3f20836014554000	0.0001259856018500649
91	0x3f6594bd0202e800	0.002634400516481783
92	0x4050d0d7a5979dc0	67.2631620388629
93	0x3fe9f9be6999cb00	0.8117363035692904
94	0x3fa7802fb475dc00	0.04589985921750639
95	0x3ff8c4e6ad16ed00	1.548071552401609
96	0x3f7ae20388788000	0.006563199807288811
97	0x40131b2a7ea66c40	4.776529292018552
98	0x3f8b0fa6a99dee00	0.01321344571237315
99	0x3f350b134f350000	0.000321094717225634
100	0x3f431714f300c000	0.0005825855532801683
101	0x3f68172dcc0c7800	0.0029407400583201238
102	0x3feb97a2b0b27340	0.8622601939310712
103	0x3eff341eb5d00000	2.9758065796414712e-05
104	0x3fa234e07cf82800	0.03555966878418815
105	0x3fbda3d609f1af00	0.11578119032645517
106	0x3f40cf7dc170f000	0.0005130161324653493
107	0x3f446327c9bec000	0.0006221718099279627
108	0xbf6c527dfa444000	-0.0034573040485454953
109	0x3f4cef0d1bdf8000	0.0008829893120001486
110	0x4010c74db7548540	4.194632401021693
111	0x4029bee47d6b8b40	12.872836989763186
112	0x3fc213f396473600	0.14123387182046088
113	0x3fa6410b6f13a800	0.043465001401116865
114	0x3faf592623e90c00	0.061227027782045695
115	0x3fce3d93dbca2a80	0.23625419837874873
116	0x3ffbe6ef8d380a00	1.7438807979930289
117	0xbf63f86b0e7ea800	-0.0024377909612285364
118	0x3fefbcbe7472f280	0.9917900347132473
119	0x3f7fbaf68efc8000	0.00774666129998991
120	0x3f9a575e50d28000	0.02572390907573663
121	0xbf9828c12ce0a800	-0.02359296642695341
122	0x3fa123e5211a4000	0.03347698239406327
123	0xbf8280793173f800	-0.00903410608452404
124	0x3f7155e5631b3000	0.004232307475557917
125	0xbf5674ab2f888000	-0.001370589421760826
126	0x401711c4c4b41900	5.76735217427472
127	0x3fd023cba3c4f600	0.252184781962427
128	0xbf2d9551d62fc000	-0.0002257025144838387
129	0x3fd8282483239c00	0.3774501114516511
130	0x3fdd9acf3b224e00	0.46257382178120565
131	0x3f7d875353f05000	0.007209134578278764
132	0x3fd6a9212e718000	0.3540728524731094
133	0xbf94e7587ee9e000	-0.020413763757886727
134	0x3fc2c115a80ba400	0.146517474225476
135	0x3fcf516b287e4e00	0.24467219807830531
136	0x3fa056b569324600	0.03191153439651018
137	0x3ffedab74bd5b000	1.9283974611562371
138	0xbf82536256061e00	-0.008948105097046799
139	0x3fcb2ffb7a273000	0.21240180458551094
140	0x3f868dcf4703c000	0.011012667994208414
141	0x3fe4d02c21925600	0.6504116683669849
142	0x3f647d2911ce0800	0.002501087392773549
143	0x4040ae0891f3e700	33.359636539547864
144	0xbf6d5253e84a7000	-0.00357929599915785
145	0x3f7b59886e9f4000	0.006677182138403737
146	0x3faf7c660d120800	0.06149596128035739
147	0x3ff7eb970bd8a600	1.4950170958276203
148	0x3fdfcc277ee73100	0.4968355883872988
149	0x3ff9c5c328bdb300	1.610781821388798
150	0x3fd5fef9f873ce00	0.3436875273029898
151	0x3fbcd6ed51517800	0.1126545260935643
152	0x3fd2823aa7cbd400	0.28919855486248025
153	0x40508648f8f29fe0	66.0982038850193
154	0x3f8ed2eb88ac0900	0.015050735577009977
155	0x3ffa1e3924a74100	1.6323787147303506
156	0xbf8841bd75790800	-0.011844139239773455
157	0x3fa4a31544502a00	0.04030672511006017
158	0x3fba2a0bc97f7100	0.10220407170658419
159	0xbf61ea462e3e6000	-0.002186905929146832
160	0x40213ec962d94ba0	8.62263020422489
161	0x401484a342fade60	5.129529043733413
162	0x3fa32de406722000	0.03745949343380062
163	0x404f497826594100	62.57397918089009
164	0xbf4c11b1b23fd000	-0.0008566014917037457
165	0x3fd744ffbe193e00	0.3635863644057906
166	0x3fed2821ccb21d00	0.9111489294017758
167	0x403d9e10dabc1020	29.617444678224388
168	0x3f65daba11282c00	0.002667773639819071
169	0x3fb6aef62400c200	0.08860720042208214
170	0x400ceceb9bcc9320	3.615683762722611
171	0x3f90f7d1479be800	0.01657034873549179
172	0x404d0b44b54f7680	58.0880343091967
173	0xbf4114060595c000	-0.0005211858180427242
174	0xbf7033abe1822000	-0.003955527696355432
175	0xbf383cd0eef60000	-0.00036983586229411003
176	0x3f9c3d780b364000	0.02757823532516568
177	0x3fa3b120fefb8800	0.03846076119022257
178	0x3fd334d81a581c40	0.30010035107301647
179	0x402125e03dcb6c20	8.573976450998146
180	0x3fb177f182f09000	0.06823644110460236
181	0x3fb2960774d5be00	0.07260176279464048
182	0xbf8148c62ba1a000	-0.008439586836360036
183	0xbf31bf73efa10000	-0.00027081089467984043
184	0x40199218e044df80	6.392673019603421
185	0x3ffa11d1a3f6f200	1.6293503193729748
186	0x3f809b66644e2000	0.008108901916571654
187	0x3f5ba922a7161b00	0.0016882742314422994
188	0xbf740cbee6c7a000	-0.004894967755241453
189	0x3ff901d28002a700	1.5629448891072002
190	0xbfb4133ca8f05000	-0.0784185326049851
191	0xbf71ee8068370800	-0.004377843465990239
192	0x3f74037d57f31800	0.004886140464071431
193	0xbf96e1ce4093c400	-0.02234575528285987
194	0xbf702f7bd3734400	-0.00395153398058401
195	0x3f7bcd6f3ff1c000	0.006787714547598966
196	0xbf783fb208ebb000	-0.005920119713419325
197	0x3f766f1dd1f8fc00	0.005477062688043155
198	0x40124e640ed06000	4.576553565471841
199	0xbf9fae50a9867800	-0.030938396784783606
200	0x4032770a75fd2480	18.465003370573413
201	0xbf73066caa627000	-0.004644798731671784
202	0xbf515707c2ee5000	-0.0010583473010443711
203	0x3fc024ff11900e00	0.12612903935961128
204	0x40525e21ebdba750	73.47082039309066
205	0xbf1206dbf4e70000	-6.876676091049916e-05
206	0xbf63613a5d7c0100	-0.0023656978554528196
207	0x403b212fb0299a40	27.129633913189764
208	0x404e560d32cd7dc0	60.672277784669404
209	0x3f88b2f020e2a900	0.012060047153074738
210	0x3f6207d3638db000	0.0022009972275807144
211	0x3ff3e05b158021a0	1.2422743644584457
212	0x3fb58511f68b0200	0.08406173962703889
213	0x3f83527f306c5000	0.009434693970924002
214	0xbfb17f39d1208c00	-0.06834756236689543
215	0x3f5c9580e9317000	0.0017446288009272948
216	0x3fa5defef08b6400	0.04271694837888873
217	0x3fe4bb9b7b2c2300	0.6479012876235117
218	0x4027d05c369a5100	11.906953531587078
219	0x3fe5a4d07326c000	0.6763689278650418
220	0x3f8fb2e7cf45a000	0.015477953923166865
221	0x3feec898bed65380	0.9619868972100534
222	0x40336f7775348b40	19.435416531875717
223	0xbf405dbea06d0800	-0.0004994564813858293
224	0x3f75dc48309ebc00	0.0053370304030258
225	0x3ff1b962a105e600	1.1077600755655794
226	0x401e131df276ed00	7.518668926724104
227	0x3f57a63476755400	0.0014434349376035716
228	0x3fa0499b44615e00	0.0318115731212707
229	0x3f87bbdccdc45800	0.011588788060674204
230	0x40409b18d57e1888	33.21169537217162
231	0xbf927600f2f6d400	-0.01802827341971991
232	0x3fec3a426cd1cec0	0.8821117520696689
233	0x3f5e2d23c99a2800	0.0018418168532741142
234	0xbf994cf46a977800	-0.024707621579970862
235	0x3f91de3c3746cc00	0.017449322580159077
236	0x3f69310be1bdc400	0.0030751449648325213
237	0x3ff112c940340450	1.0670864589631215
238	0x3f5ba370ab9ce000	0.0016869163795956155
239	0x3f33e857dac0e000	0.00030376572499646315
240	0x403ae1ebed212f40	26.882506199456884
241	0x40190c43b910b480	6.261977092403981
242	0x400fb32015b7f880	3.9624635407226947
243	0x3f44560bcb7f9000	0.0006206090538367626
244	0x3fc257cf7f4bc000	0.14330476489658395
245	0x3f4cea29851e8000	0.0008824064955099686
246	0x3f3ae41cc71fc000	0.0004103250749940557
247	0x3fe9c9cab912de80	0.8058827986451007
248	0x3f4e2ae591095000	0.0009206410341655591
249	0x3f723719ca2a1000	0.004447079411537658
250	0x40542f294c9c4ca0	80.73689570678334
251	0xbfc3592f1046da00	-0.15115917486919273
252	0x3fe8fee68cfd3200	0.781115794533946
253	0xbf438870a65bb000	-0.0005960989044218046
254	0x403201cedd52b040	18.00706275242578
255	0xbf93cc2842c3e400	-0.019333485674881246
