output/predictions/zeno_1_model_save.npy (npy, 129728 bytes, 1 tensors)

array f8 [16200, 1]
000000 f2 cb 1c 2b da a0 35 40 36 49 13 0e e6 b5 ef bf
       21.628328985720096 -0.9909544253262428
000010 56 36 c3 1a fc 92 e6 3f 99 00 a5 ed f4 10 05 40
       0.7054424784379971 2.6332796636562077
000020 e3 f6 55 b8 27 38 ea bf 6e 9b c7 4f 31 51 23 40
       -0.8193548775013507 9.65857934295283
000030 b9 6f 98 42 7e 67 0f 40 30 a9 f8 25 75 80 22 40
       3.9255337908525374 9.250893770794022
000040 74 4e b5 d5 64 f6 f9 bf 5c 20 e3 61 91 70 d4 3f
       -1.6226547573068304 0.3193705993585405
000050 9d b9 14 67 2b d0 e0 bf 3e d6 e1 01 3c 7a 08 40
       -0.5254113210010477 3.0596847674412677
000060 5b 60 38 fa 4d 5e f5 bf 32 38 a4 2a 9f 44 ce 3f
       -1.3355235838153223 0.2364691694460262
000070 78 8a 89 00 a5 58 23 40 27 c1 42 1d 19 6a f3 bf
       9.673133866109524 -1.2134028571127347
000080 08 4b c1 d7 59 0a d6 3f d6 c2 7d 30 d9 06 ff 3f
       0.34438177175358975 1.939171971720659
000090 fe 5d 6e f0 75 0b 25 40 74 50 19 59 04 a7 f8 bf
       10.522384179565957 -1.5407756309914733
0000a0 42 2b fb 0f d9 d3 cd bf d8 c2 95 88 29 76 a2 3f
       -0.23302758484200053 0.03605775635049263
0000b0 4e 8d a5 f3 0d b4 e6 bf 37 41 ad 59 c8 ca fa bf
       -0.709479308960377 -1.6745074751853062
0000c0 68 5e 0f e7 b4 93 ec bf 24 bb 00 9a 5e c4 ea bf
       -0.8930305970088286 -0.8364708907955429
0000d0 b0 a2 71 e1 ea 51 f3 bf 8b 30 cc 73 e6 65 f1 bf
       -1.2074993902589704 -1.0873779795975078
0000e0 71 3e f4 82 8e 5d 22 40 7e 59 4f 6c 85 3f f2 bf
       9.182727901759081 -1.1405081015451226
0000f0 5a 90 16 c4 2c d9 d0 3f f7 2d 5c 4d 99 8f ed bf
       0.263255301945042 -0.9237791548670761
000100 4d 51 e4 73 15 3c 18 40 19 ee 1b 73 3c 81 de bf
       6.058675585565948 -0.4766379474747012
000110 1d 10 05 13 a6 a7 e8 3f 0a ea 2a 40 14 e9 e5 3f
       0.7704649325828573 0.6847020390771956
000120 f4 ed e0 89 94 10 ec 3f 70 9d 73 f4 7e a2 1a 40
       0.877023953718377 6.658687419468478
000130 a7 4f 9f 38 99 24 08 40 52 80 72 56 6c c0 2c 40
       3.017870371209898 14.3758265509388
000140 b6 39 0b d5 aa 28 02 c0 7c 0e 15 01 79 ef f4 bf
       -2.2698570865679484 -1.308465007998989
000150 12 79 dc 0e 9c 21 ff 3f 1a c0 11 eb b8 42 0b 40
       1.945705469180727 3.4075792660514823
000160 5e 00 a6 bf f6 d2 31 40 9c 85 bd bc 2c 17 19 40
       17.824077585246748 6.272631596629619
000170 ce 15 4b 2c 9a f3 f3 bf b8 5a e2 d5 60 0f ed bf
       -1.2469732027251328 -0.9081272294450491
000180 b9 e7 16 e8 cb b6 19 40 01 75 fd d8 32 69 32 40
       6.428512216947575 18.410932123068964
000190 84 5d 5a 8b b3 5f 0d 40 66 c6 21 7b 36 75 e3 3f
       3.6717291724159526 0.6080582051201417
0001a0 aa eb 70 19 79 1a 05 c0 ea bc be d7 03 7d 24 40
       -2.637926291235506 10.244169942887726
0001b0 9d b4 97 5e 33 a7 00 c0 44 29 6f 13 bf 2e c5 3f
       -2.0816409483000613 0.1654890866178197
0001c0 89 fb d3 c0 10 f8 06 40 50 62 ae 59 ee 63 11 40
       2.871125704259104 4.347588921803052
0001d0 fe c0 61 f5 c7 57 06 c0 46 f7 3a 39 5b 26 21 40
       -2.792861859365188 8.574914730499255
0001e0 9c c5 2c f5 22 62 ea 3f 11 88 fe a8 83 1f 36 40
       0.824479559762199 22.123102724210245
0001f0 84 5b 64 37 89 1d dc bf 44 0c f9 24 0e e6 1d 40
       -0.4393027344644269 7.474663331700018
000200 06 45 89 95 ef 15 cb 3f a9 81 80 37 70 16 28 40
       0.21160692979405143 12.043824896275355
000210 cc bf 07 5d 51 49 fd bf ba 6c 52 59 e5 05 34 40
       -1.8303998598093925 20.023030836699697
000220 48 13 71 73 5b de f9 bf 00 ce a6 9a 16 ab e7 bf
       -1.6167864331666397 -0.7396348019159973
000230 e8 52 f7 20 ec 0a e5 bf 27 41 5f f5 76 96 16 40
       -0.6575832980984986 5.646938165606378
000240 8e 53 8d d5 97 b3 ee bf f9 a7 62 65 00 67 1a 40
       -0.9594229861200902 6.600587448259824
000250 2f 00 aa a8 17 14 15 40 f3 22 d8 9d 73 ae 2e 40
       5.269621501327534 15.340725834497311
000260 17 01 0f 92 00 cd 22 40 3b af 7e 22 54 9c 36 40
       9.400394977885794 22.610658794335205
000270 55 11 81 0b 7d 10 f7 bf 98 24 65 ce 03 02 1b 40
       -1.4415255021459263 6.751967644618297
000280 3f a1 0c 79 f6 e6 31 40 51 52 60 bc 17 38 30 40
       17.902198377212013 16.219112180248263
000290 00 94 bf c2 8b 90 e6 3f cf ea 79 ad ae 94 20 40
       0.7051447681120635 8.290395184643243
0002a0 3c 0e c0 4d 73 87 ef bf 2a d6 79 78 37 d8 05 c0
       -0.9852844732817583 -2.7305745517903874
0002b0 74 37 11 61 42 26 e3 bf 83 54 5d 36 07 ad fe 3f
       -0.5984203239292882 1.917243206369023
0002c0 00 4e 11 f7 76 db ed 3f 1a dd ac b5 26 6e 07 40
       0.933040125421428 2.92878477033413
0002d0 90 f2 bb ff 29 21 62 3f ca c2 ef cb d8 1f ea 3f
       0.0022130794803828027 0.8163875563751273
0002e0 3e 3c 3e 7f 51 93 35 40 b6 74 9c 39 2f 62 fb 3f
       21.57546229619424 1.7114708185611511
0002f0 90 e3 b2 7f 65 67 17 40 59 6e dc 92 c8 54 29 40
       5.850973124784005 12.66559275570687
000300 89 79 6a 92 06 2b ff bf fd 30 d8 d0 5d da 12 40
       -1.9480043143626935 4.713248503871225
000310 3f b9 c0 2e e3 43 eb bf b7 07 a7 6a d8 50 f5 bf
       -0.8520370400563378 -1.3322376409637238
000320 37 d4 9c 0f 10 3b d7 bf bb b4 c7 99 8a c1 e0 3f
       -0.3629799034563947 0.5236256602780921
000330 48 0c 44 ef 6e b5 f1 3f 4c 86 6b 99 14 9f 95 3f
       1.1067952486344144 0.021114656318678635
000340 1f ab 8c 1c 8f d0 26 40 63 36 88 e6 ee 7d e7 bf
       11.407341854258958 -0.7341227057056127
000350 ce 93 c5 cb 8a 40 ef bf cc dc 27 0c b0 6d db bf
       -0.9766286830823618 -0.42856980502206166
000360 d2 a6 67 14 b7 d1 fc bf 19 2d 63 b1 ba 1c 03 c0
       -1.8011999890390382 -2.389027963484875
000370 1c 42 a1 77 5e 32 1b 40 08 41 f0 c6 b5 4b 25 40
       6.799188489167616 10.647871224239239
000380 63 e2 f6 7b f1 95 07 40 79 2a 97 15 4a 95 c8 3f
       2.9482145008772007 0.19205595068190798
000390 8b 31 1f 6f 00 d1 20 40 f8 d9 75 42 c9 57 fb bf
       8.40820643668919 -1.7089321704967215
0003a0 fe 6b e0 47 7c 69 28 40 d8 4a 2a fe 05 b5 08 c0
       12.206026312012906 -3.0883903366715053
0003b0 bf 2f b0 d3 a2 03 08 40 15 1d 9c 09 a4 47 e3 3f
       3.001775411428724 0.6024952113811276
0003c0 3c 4c 3b c5 37 13 ed bf 20 ff 6e 5a 45 80 d7 bf
       -0.9085959293537438 -0.36720403510479294
0003d0 6b 66 7f dc ee b9 01 c0 ae 29 8f dd ce 8a c0 bf
       -2.2157876230601707 -0.1292360860664536
0003e0 7e bf ef f7 72 1c fb bf e4 d2 77 c7 27 50 16 40
       -1.6944455800075668 5.5782767454991
0003f0 04 c1 fb 13 97 cf 17 40 b5 33 ff eb 7e 53 c0 bf
       5.952724754563182 -0.12754808924947061
000400 3c b1 c4 e9 53 96 a2 3f 0c 94 c8 a4 12 32 1c 40
       0.03630315998666098 7.048899245016411
000410 92 56 5e e1 44 9e ee bf eb 91 3f 82 b5 05 02 40
       -0.9568199540833169 2.252787606778147
000420 12 94 ac e3 7b f4 09 40 13 9d 88 06 c6 9d a1 3f
       3.244376925186324 0.034406841561855604
000430 50 02 1a 57 58 43 ef bf de ac 43 80 74 d5 07 40
       -0.9769708348467905 2.979226114335332
000440 c2 f6 c8 22 04 a7 b2 bf c2 f7 69 d2 20 2a 30 40
       -0.07286096429103409 16.164563322897955
000450 a6 48 66 ad 4e 3b 02 c0 21 52 e4 f5 8e 19 02 c0
       -2.2789586588706525 -2.262479706793116
000460 74 e2 da 1e d6 79 08 40 02 24 1b bb b4 09 07 40
       3.0594904337452196 2.879739248052375
000470 c1 7f 34 10 68 54 ef 3f 2c 99 ea 14 98 c0 32 40
       0.9790535274987563 18.752320582652075
000480 e5 cf 32 a7 cd f1 fb bf 0f f6 9e f0 35 f7 d7 3f
       -1.7465340167227563 0.37446354387415764
000490 d2 cc a9 f0 ae 4a ea bf f6 00 1b da 7c 28 20 40
       -0.8216166210608213 8.079077544971806
0004a0 c7 fc 55 87 f2 f1 fc 3f 0a e3 8c 2f 3b a9 27 40
       1.8090691839750421 11.830529676387886
0004b0 f8 65 df 52 24 a7 e1 3f 7c 56 eb 8c 87 e5 12 40
       0.5516530626875342 4.724149896491891
0004c0 b6 b8 e1 4d 39 e2 22 40 c1 71 53 3f c9 9e 37 40
       9.44184344654455 23.620258291122585
0004d0 30 40 c3 a4 de 24 a8 bf 5f ce 9d 1e 9d 49 01 40
       -0.0471562934995976 2.1609442130955325
0004e0 51 89 e6 ac de e8 ea 3f 48 38 ec 40 da 03 fc 3f
       0.8409264924014598 1.7509405647320069
0004f0 06 2e fd 5d 8b cf f7 bf c1 13 76 72 e1 91 d6 3f
       -1.488170020241229 0.3526538484368836
000500 a6 ea 24 8b ac a6 22 40 0a 78 55 b7 03 b2 16 40
       9.325535152679844 5.67384230097924
000510 cd 05 3c 6d a7 66 d1 bf dc 9d 0a 02 2d 9c 34 40
       -0.27189050357273176 20.61006176718898
000520 b0 a4 22 94 bb 2e fd bf 85 2d 91 f2 23 96 fa 3f
       -1.8239093576942587 1.6616553759839416
000530 97 9b 95 a7 30 91 23 40 87 48 ba 55 9d 50 30 40
       9.783574330341976 16.31490073965008
000540 db b8 05 66 c7 c5 e0 bf ac 0c 13 67 e5 a4 f3 3f
       -0.5241429321884213 1.2277578379005645
000550 8f d7 e6 77 8f b9 1e 40 c8 9d 1b 0e f8 e3 e0 3f
       7.681211350883941 0.5278282428307017
000560 3a 31 aa bb 33 35 37 40 b1 9e 65 a9 0a 9e f1 bf
       23.20782063393674 -1.1010843865459885
000570 8e 24 fa 2c 2c eb fb bf 19 c0 2a 43 fe 72 ff bf
       -1.7449151760977517 -1.9655745147429171
000580 51 4a 84 3a 31 37 05 40 97 43 f8 38 46 60 04 40
       2.651949364816837 2.5470089388622443
000590 86 f9 04 b1 51 48 b4 3f 2a 4c f6 50 e5 23 24 40
       0.0792285020042752 10.070108919206252
0005a0 a7 e7 e6 a4 fc 1c 02 40 1f a9 78 da bb 20 0c 40
       2.2641537554709035 3.5159833019325926
0005b0 61 06 b3 ca 71 65 eb bf f4 da a9 6f fd 70 cd 3f
       -0.8561333617182748 0.2300106806976242
0005c0 6d 44 24 13 a4 a8 32 40 70 f9 51 ec 59 e3 12 40
       18.658753582338637 4.722022717002218
0005d0 d5 c0 99 3f f3 5b f4 bf 78 1d 9e 4a 80 cf f8 bf
       -1.2724487766645798 -1.5506594576598598
0005e0 74 3d e9 ab b8 ad ee bf db fb 49 2d 42 af 24 40
       -0.9587062223089746 10.342301764756419
0005f0 0a 3d 4e dd f4 f5 08 40 b3 9b ab 7e 21 53 f6 bf
       3.1200959481717563 -1.395295615011247
000600 0a 8c 98 39 61 1e ea bf b5 e0 62 66 a1 1b 08 40
       -0.8162084698600449 3.0134914397168253
000610 80 3b 79 87 16 a1 b4 bf 9f 3c f7 c3 09 8a ef bf
       -0.0805830078836447 -0.9856003596741124
000620 4c 70 11 f3 1b 91 dc bf 43 5b ee d4 3a 2a f6 bf
       -0.44635676133271285 -1.3853100125904383
000630 96 d2 6a 86 ed f8 24 40 74 e5 f0 c5 64 8b c0 3f
       10.486187172450894 0.1292539564617915
000640 aa d5 da f4 f0 65 2d 40 ba 45 95 b5 f9 80 0a 40
       14.699103976929866 3.312976282709056
000650 0e ae 6d e9 cf 8d f6 bf f8 b7 16 01 6f b5 e5 bf
       -1.4096221082971883 -0.6783976575150055
000660 41 b5 99 68 19 be 2f 40 20 3d 57 97 30 88 d4 3f
       15.871287602198779 0.32081236628887844
000670 e7 58 d4 f6 db 91 08 c0 0e c3 25 8b 81 a0 32 40
       -3.071220329623532 18.62697667762682
000680 b9 38 2f 59 52 9f 31 40 d6 33 81 93 46 4c f4 bf
       17.62235028651114 -1.268621994199966
000690 96 95 2a 14 52 30 ca 3f 21 44 b2 05 fc 5d 10 40
       0.20459962830242934 4.091781701093198
0006a0 34 dd 4a e4 df d1 e5 3f b4 fc d0 55 27 48 c0 3f
       0.6818694552265812 0.12720195474864726
0006b0 b6 7b c9 37 a4 dc f0 3f 5a 40 18 84 e1 da d7 bf
       1.0538675479108242 -0.3727344312656037
0006c0 c8 dd 94 cf e5 f4 ec bf 7f 17 3f 8d e3 42 1c 40
       -0.9048947386099195 7.06532116601545
0006d0 7f a8 be 7c 24 73 2d 40 e4 1b e8 95 77 84 ef 3f
       14.724887750886635 0.9849203040947683
0006e0 3b 47 60 3f 3a 79 10 40 c4 1e b5 c2 43 db 03 40
       4.118386259318693 2.482062836792325
0006f0 49 8c 9b bb de 19 3c 40 ca b5 80 60 4a 81 e5 bf
       28.101054883456786 -0.6720325360126307
000700 ec 60 8a cc f2 f1 ef bf 3d 2d 38 37 38 74 07 40
       -0.9982847208912324 2.931747847940328
000710 2a bc ed f4 5a 05 23 40 2b a3 fa 19 67 94 f1 bf
       9.510459569950473 -1.0987311377341011
000720 6c f3 4b 03 b2 df f0 bf e0 62 d0 57 da 5e e7 bf
       -1.0546131256844218 -0.7303287234418256
000730 60 e7 2a d4 e1 31 29 40 ec 64 26 86 82 9a d9 bf
       12.597426061856538 -0.4000555334146856
000740 0f 90 09 2f c3 0c 1c 40 ab 59 b8 37 1b 50 f3 bf
       7.012463316877997 -1.2070572067801588
000750 f2 c6 f6 7d 91 4f d1 3f e0 34 92 93 dd 18 e7 3f
       0.2704814653508115 0.7217853433845924
000760 bc 66 6d fb df 84 d5 3f 08 3f 10 14 e0 8b 1d 40
       0.3362350421281055 7.386596978656378
000770 fd df 80 c1 d3 fe e1 bf 97 3d bd 18 3c 45 e3 bf
       -0.5623568324435834 -0.6022015078723822
000780 e3 97 87 dd 5f eb 35 40 b0 81 04 f2 64 6b 24 40
       21.91943153915771 10.20975452713978
000790 77 27 a7 23 ac 0b 21 40 7d 3a d6 ce fe d2 05 c0
       8.522797693399964 -2.7280250701072064
0007a0 0f 5a 56 df ac 34 18 40 13 d8 fc ff f8 77 ff bf
       6.0514407059149695 -1.96679019923386
0007b0 32 30 80 7c 02 69 df 3f df 36 1b d7 73 a6 0e 40
       0.49078428419375364 3.8312756352596433
0007c0 ec 02 1b 96 39 87 e4 bf 2c ce a6 2c 00 f9 8e bf
       -0.6415069514988239 -0.015123368609102426
0007d0 07 3e fd a9 e2 c0 34 40 0e c4 94 ec 0a 9e 0a 40
       20.75345861847566 3.3271692736530047
0007e0 b2 1e 97 71 a4 5f 25 40 53 c9 56 8c 0c b2 05 c0
       10.686801480958227 -2.7119379962906947
0007f0 8c f8 b9 ad 01 cc 31 40 8c 52 a4 b0 70 7c eb bf
       17.79690061369233 -0.8589404535328682
