output/predictions/zeno_1_model_save.npy (npy, 129728 bytes, 1 tensors)

array f8 [16200, 1]
00000000: bddf f713 a337 3040 c468 9601 770e e23f
00000010: 689c 8ed4 5849 ab3f 3488 bd10 aa02 1340
00000020: 3f7e 0567 d162 f0bf fa4e fee1 a7a8 2440
00000030: 040f 0f8b d610 1440 572d 32e5 d722 2340
00000040: 855e b5c6 31a1 0cc0 84be 8486 9f9f f5bf
00000050: 33a4 b87d c8bb f2bf f079 77b8 1ba9 1740
00000060: 509d 3c2b e55c bf3f 7bdd 8f18 94b4 f4bf
00000070: 21a0 3228 8f37 2340 ac05 b33d 5851 f4bf
00000080: e61d 63d2 e7a4 fa3f 84a9 19eb 4ea0 0540
00000090: 71ad 64d1 bf69 2340 36bc 20ba b5e8 eabf
000000a0: 9813 3b2b 8a12 e9bf 98ad 7407 631a d83f
000000b0: ff76 5c99 fda0 eb3f c0d9 d56c 208f f3bf
000000c0: f093 79c3 b982 bd3f 7ac7 06a0 0f8f f3bf
000000d0: c06f 1e59 6f0c ad3f 5275 341b 08dc 05c0
000000e0: b897 b42b 939f 2440 5097 c17e a0ad b9bf
000000f0: 009f 9812 5a87 be3f 72ff d697 622b ddbf
00000100: 9217 a84a 9e75 2640 b81a 2519 400e b93f
00000110: a0a7 0a49 36b6 0040 fa78 4b2c 5021 1040
00000120: 5a91 1d11 1ea9 babf 7842 971b f21a 2040
00000130: ab68 1796 21c3 1140 12bb 5496 e812 2740
00000140: 6511 fa37 4ff2 05c0 bc75 4a35 f503 0ec0
00000150: c14f 46b1 5810 1340 fe8d f68e 344d 1a40
00000160: 3faf 7c4b 2ca5 2f40 6cc9 473d 1c74 2340
00000170: e22d c3fb dd7b 03c0 44a9 6502 3768 f1bf
00000180: 07ca 3398 8b11 1f40 28ec bdd0 c14e 2d40
00000190: 457e 1adb bd1a 1340 e193 6089 4737 e83f
000001a0: 8d2b bf60 686c febf 12a5 6840 6584 2740
000001b0: bc3c 742f 6bfe 10c0 ec4d 4dbd c6d0 e3bf
000001c0: 779d 6645 cd5c 1840 ba8a 6f0a e663 1a40
000001d0: cfa0 08b0 bf57 08c0 92ea 7dd0 1f27 2140
000001e0: 677d 3a02 cf41 0240 e44e 4840 62a3 3240
000001f0: 426c 2f63 5342 dfbf 5d51 c59f f849 2040
00000200: 76fd 0161 a7ad 0240 008a d585 77d5 2540
00000210: 10e5 41c4 c97d 09c0 3a21 ce36 f3ea 2d40
00000220: ee61 2499 c664 fbbf 1017 3232 74d2 e5bf
00000230: 8062 140a b5dc c0bf 7133 aef0 b773 2140
00000240: 0100 35cd c719 d53f c115 15b4 b975 2140
00000250: 6b8c 81be dc3f 1040 a737 105a d093 2740
00000260: 79fd 78b4 0760 2540 c194 26f4 2b8e 3340
00000270: e561 7941 eef0 f2bf 2b02 ab8e 4062 2940
00000280: 54cd 2205 15b0 3040 8d01 891c f560 2c40
00000290: 1627 0c84 3f2e f73f 4ca1 6441 1c18 2340
000002a0: 4df7 23e4 bb2f f6bf 26e3 67c9 0d88 15c0
000002b0: 3ab1 375e e748 06c0 8df0 4c91 98e6 1040
000002c0: 063b e44d e1e0 0140 010c 9583 235e 1240
000002d0: 7854 56cb 8327 cfbf ae73 01cc bba5 e13f
000002e0: 6223 de3d 6ae3 3340 37aa d41f fd86 0140
000002f0: 9fa7 e596 20cd 1b40 c1c6 f380 e6e5 2240
00000300: 23d6 009b 5be8 0cc0 a172 4745 d63a 1840
00000310: d808 a0db 2bf8 b43f 0f65 f06c 5539 11c0
00000320: 30ef 5f50 9e4c fcbf a500 b305 c7bc fc3f
00000330: 30e2 809f f590 1240 227d bba2 935c e03f
00000340: 6fd7 77c0 1dad 2940 c2c2 664e e0f7 f9bf
00000350: 8f05 e7a0 32f0 06c0 30d5 5869 b19a d23f
00000360: 816e abe5 8e1d ffbf 848d 95de b5dd 09c0
00000370: 9177 7a2d 3936 1b40 8338 79df f779 2040
00000380: fcf9 d681 79c3 0a40 b8b2 3066 3b0a 05c0
00000390: 24f0 476c bfbb 1d40 4c67 e25b b5fd d0bf
000003a0: 728b 3cdc 1809 2a40 00bd 258d a3ad b4bf
000003b0: c97d cf4f a922 1940 1d19 2b02 c46e 0540
000003c0: 1307 fd33 487f 01c0 1cd3 9796 0e70 d0bf
000003d0: 0e9b f34a 1176 0cc0 10d1 8a95 8ebb d83f
000003e0: 4e92 c179 3c94 09c0 407e 80a2 b81c 1e40
000003f0: 7845 76ca 3e3e 1c40 9b81 6960 93d1 0540
00000400: 5afb 6e8e 21e9 e03f edff 0365 9d59 1d40
00000410: 6ece f780 c3e4 ff3f 36fd f223 1880 0a40
00000420: 5f44 c37e 9b96 1540 58cf eadc 8652 c7bf
00000430: 0035 da7f e56c e2bf 4007 9f2d fe51 1140
00000440: 9b52 e367 c5a6 f3bf ac1e e014 3b7a 2840
00000450: 34b9 974c c5a1 f0bf b05b a449 cf19 f6bf
00000460: ae9a fcb8 879a 1240 1937 0d63 9500 1e40
00000470: a6f7 5222 272e e5bf 36df 73ba 5268 3140
00000480: 647d b9fb 4bbb 09c0 6c77 c63c d398 d83f
00000490: e0ea 2c21 2b9b a13f 5d62 377c f185 2140
000004a0: cc72 e4de 8f95 0940 461d ba5f 00c2 2a40
000004b0: 27a9 aa75 b2cc 0940 468b 03ac 8cce 1e40
000004c0: ddd5 e14c a4c4 2140 f414 7514 c99b 3240
000004d0: 1c08 1e3e 45b3 dcbf 2ebe 10ee 4c70 0d40
000004e0: 805d 3cfa a2cd 0a40 5054 420c b8f2 0740
000004f0: 9e5f 6824 8e21 fbbf 26c9 5c4e 6839 d2bf
00000500: 29c9 d940 c94e 2140 dc88 1490 508d 1b40
00000510: 023e 4857 1e96 b3bf 8007 64a2 89e1 3040
00000520: aca1 4e2c ffcf 09c0 c494 113e 938c 0440
00000530: 0ac5 5fa8 7388 2940 c5b8 b46b e82d 2d40
00000540: 18d9 e958 29bc e7bf 1f38 b237 e204 0640
00000550: 00db ce0a 123d 1e40 c08b f5ce 03fb 673f
00000560: 00f7 fb08 7be6 3140 b4f5 8ace b79e 0240
00000570: 0800 a308 4a39 01c0 2eb9 c5da 8820 febf
00000580: d387 df3f 46c5 1540 3a8d b165 2551 1240
00000590: 127d d53a 4a14 d1bf 4f02 fa06 f870 2240
000005a0: 2a97 ff00 6c9a 0f40 9142 ec86 d81d 1140
000005b0: 0f5c f768 90b7 c5bf 16f9 88bc bd1a 0040
000005c0: 5243 5082 d5a5 3040 7180 3101 2870 1a40
000005d0: 448c c9a6 0fdb f4bf 10b6 6f3b 930f 06c0
000005e0: a253 a565 35fc e93f a2d4 19da 5962 1f40
000005f0: e132 abbe 0fd2 0840 c68b 9f7e eaf1 edbf
00000600: 097b 806c 7ce4 febf 9a33 00df cd4e 0a40
00000610: fc48 5bde b4b7 e83f 5617 ba57 5a4f f3bf
00000620: 4304 8dcd 4f6f fdbf 8d1c ed2d 3b45 f4bf
00000630: 7ca6 6d7b 60b3 2440 44ea 62b2 e9c9 ff3f
00000640: 9869 ca9f 2fd3 2a40 4d47 f259 c32f 0a40
00000650: 18e1 21cc 04ae efbf 58c3 e92d 308a c3bf
00000660: 1375 aa21 35bc 2940 f233 0dfa df07 e73f
00000670: 0bc1 bf49 618b 05c0 828d e26c 4fe7 2c40
00000680: ab96 44ce b470 2d40 680e 5d83 11cc d3bf
00000690: 556f d013 19f5 e93f d338 0dc4 2e85 1240
000006a0: 24e0 ee55 072f e33f 9815 5794 7798 dc3f
000006b0: 6634 9327 e95f fe3f f00d 351a 952f febf
000006c0: 0d88 c645 30b6 f8bf b7b4 b067 d07a 2340
000006d0: 2a88 0fd0 0854 2b40 e07e 759b 58ac 1040
000006e0: 47d6 3abf a6ff 1340 7f66 57ba 0764 1440
000006f0: 512a 2110 1a27 3740 685e 7dc8 a7ad f6bf
00000700: 9737 5e2e a0cc f5bf 4e67 4aa0 948d 1240
00000710: 0c37 bd0a 53c7 2540 6470 27fa 3935 07c0
00000720: 7b60 92fe 6d2d debf 40ed 8f90 a59f fd3f
00000730: f35f f6e0 60dd 2640 a863 d56a bcbe c0bf
00000740: 2be1 945f 0be8 2140 58bc 9e9b e5a4 05c0
00000750: 5c71 ae9e 66e6 fb3f 3ae1 35f0 b41a e63f
00000760: aeb2 4295 d8bb fbbf cce1 741c fa96 2240
00000770: 9a70 df26 6185 eebf 6848 777e 8c17 fabf
00000780: 8838 9135 71ee 3140 2e73 f99e 36bc 2340
00000790: 6593 9dc6 fe0e 2340 03f7 ebe2 5ded f6bf
000007a0: 8e51 b4a6 8be0 1c40 8c1a 86e7 efe5 06c0
000007b0: d292 de53 172d f53f 96af ccce 7ec5 0d40
000007c0: 8a3a 6237 5f8c f43f 30cf 0123 f0f5 9abf
000007d0: 28f3 8995 1766 2f40 151f 3f79 5f97 0d40
000007e0: 36fa 4138 1cd1 2340 7aca 3b6b b61d 12c0
000007f0: 0b36 404a 52a6 2c40 443e a905 59c2 d03f
16.217332122818096 0.5642657309538426 0.05329396815005155 4.752601872985952 -1.0241254829669655 10.329405844014662 5.016443417352779 9.56805340039743
-3.578708221826505 -1.351470494711891 -1.1708455000864546 5.915144808094269 0.12251121812424981 -1.2940865477993089 9.608514076404449 -1.2698595438126672
1.6652601450203917 2.703275524826667 9.706541579761252 -0.8409069667158124 -0.7835131496764118 0.37661052444556153 0.8634021754585034 -1.2224430323964128
0.1152759649499584 -1.2224270106348443 0.056735496166964605 -2.7324373364814756 10.311669698519708 -0.10030558676370771 0.11925280527122695 -0.4557730181513683
11.229723294276287 0.09787369359865294 2.0889707285286505 4.032532398325424 -0.10414302747591844 8.052628385748207 4.44055780904652 11.536930749743565
-2.74331516010186 -3.751932541212879 4.7659633349575765 6.575395807074072 15.822603568048747 9.726777949345625 -2.4354819935740446 -1.087943086017348
7.76713407341095 14.653822444137475 4.776114867679614 0.7567479785108128 -1.9014667300386663 11.758584988378548 -4.248455754727896 -0.6192353913597208
6.09062679709256 6.597557223375299 -3.0428460838921647 8.57641459977211 2.282133119020432 18.638217942860948 -0.48842320142802376 8.144474976383828
2.3347919062359166 10.916927511517315 -3.1864199955567827 14.958886826193169 -1.7121034605134997 -0.6819401722320624 -0.13173544876260124 8.72601272703625
0.32969851531743194 8.729932429860925 4.06236550965978 11.788698973159468 10.687558784264853 19.555358180445868 -1.1838209683975205 12.691898783087785
16.687820740696523 14.189370052074787 1.4487910421470978 9.547090571912712 -1.3866537963617305 -5.38286509224489 -2.785597549509615 4.225191374131225
2.2348047337794723 4.591932350132084 -0.24339339665008075 0.5514811501012582 19.88833986924454 2.1909124838614633 6.950319631354346 9.44902422881876
-3.613455973589923 6.057458002553774 0.08191179382268687 -4.305989935085804 -1.7687056674612442 1.7960882399202458 4.641561977616718 0.5113008669249306
12.838117613438696 -1.6230166494898843 -2.867284066248153 0.290691712263043 -1.944716355464067 -3.233257044733991 6.802952490424915 8.238219245479064
3.345446600316107 -2.6299961074458587 7.433347408190489 -0.2654851338680728 13.017767794028007 -0.08077451892835441 6.283848998107211 2.679084793987512
-2.1871494351952463 -0.25683941561082846 -3.5576501708595805 0.38644756892905807 -3.197380973071893 7.528048075764275 7.060786403149329 2.7273318798253974
0.5284583837418311 7.3375144752207975 1.9933505094349147 3.312546044209422 5.397077541988522 -0.1822060183236498 -0.5757930276028276 4.330071175414389
-1.228215604603213 12.238732006414772 -1.0394947997952615 -1.3813012005464138 4.65090836564802 7.500569865876764 -0.6618838949577721 17.407512334145586
-3.2164535203916547 0.3843277066715618 0.034386966514338146 8.76160801101758 3.198028317782109 13.378909102887189 3.224949759741452 7.701708495823203
8.884066011970328 18.6085369859547 -0.44844180170196224 3.679834232221558 3.3504085111305244 2.9935151059858427 -1.6956921980072148 -0.2847538724191899
8.653879191003016 6.888002635243733 -0.07650937682068817 16.8810063833439 -3.226560922765392 2.5686402176966983 12.766507398310313 14.589663854418527
-0.7417189346877278 2.7523846007598105 7.559639138102966 0.0029273104079705348 17.900314866556982 2.3274990211636695 -2.152973239397401 -1.8829430146975699
5.44265079309294 4.579244221650976 -0.2668634008932297 9.220642297762565 3.950401313591006 4.279146297617118 -0.1696644318132887 2.0130572060871925
16.647789139361812 6.609527605673166 -1.3034817233208438 -2.757605041834502 0.8120371804494548 7.8460458830133195 3.102569093322345 -0.9357807610616582
-1.9307827223162255 3.288478605455066 0.7724251120473862 -1.2068732668717153 -1.8396757153825696 -1.2669021409981582 10.350345475325632 1.9867951362818
13.412472718676142 3.2733218218863045 -0.9899925219497474 -0.1526546692071189 12.867592861230639 0.7197112926311304 -2.6930566560405444 14.451777842193
14.720129438278795 -0.30933034733263876 0.8111691843982763 4.630061209971433 0.5994908026104935 0.44680585371346515 1.8984157129191543 -1.886616804477736
-1.544479630051231 9.739871254272982 13.664129735847457 4.168306759878504 4.999659526792647 5.097685729584213 23.15274143991184 -1.4173963386182553
-1.3624574481250187 4.638262276211959 10.889305434796846 -2.9009894889150463 -0.471522806744822 1.85147625417342 11.432379751277017 -0.13082080093843484
8.953211771892333 -2.705516067296724 1.7437502096646176 0.6907601062403395 -1.7333608465661814 9.294876946704697 -0.9537816771731003 -1.6307492199016682
17.931414936022094 9.867604225111418 9.529287535415003 -1.4329508651857743 7.219282727008602 -2.8622739875602914 1.323508575072243 3.7214332729544806
1.2842704928804403 -0.026328804146444174 15.699398682679728 3.6989125702274444 9.908418424657707 -4.529016185306881 14.324846573198576 0.2618620448383562
